model/away.pth (torch, 12927 bytes, 10 tensors)

liner.1.weight f4 [36, 32]
00000000: a28a 70bb 39c8 033e 73f7 2c3e 4fc2 3b3e
00000010: ef5f 9dbd 1364 e03a 66f7 8bbd f031 dc3d
00000020: a80c c6bd 2043 5b3e af0d 6dbd 0640 333e
00000030: c7a1 34bd 0b75 513e fb26 433e 4dd3 113d
00000040: c69a 0ebc e93a cebd 302f 86bd ccdd 09bd
00000050: 6fab ab3d a307 983d 22c5 1fbc 2d08 3a3d
00000060: ba9a 203d c7fd f13d 846f 06be fadd b8bd
00000070: a479 40bd 8c5f 09be 5127 2abd 5eef 0bbd
00000080: 065d 18bd 4d85 75bc 9113 f3bd dfbc 30be
00000090: a493 1abe 9fca 9dbd 5037 09be cdd9 df3d
000000a0: 190a 12be b715 813d fc6c a23d 7fb1 ceba
000000b0: 5b5c 093e 555f acbb ad74 203e 3c99 1cbe
000000c0: c9ef 893d 1545 d03d 7695 043e 2161 3abe
000000d0: f4f2 2fbe a9c7 1f3e df55 153e a782 d03d
000000e0: a08a 88bd 23ad 24bd 477c 123b 2c45 a0bd
000000f0: e6a7 a7bd 10ad c9bc 065d ebbd 1f8c 8abd
00000100: b28c e83d 1c39 4a3d 2f73 2b3e 92d1 c13d
00000110: 43a5 b7bd 0de1 863d 6173 063e 60bd b7bd
00000120: 4db7 02be 8434 9bbd 5f70 c9bd e239 14be
00000130: 2c15 2c3d 8fb5 0c3e 8afa f6bc 7a32 953d
00000140: daa9 6e3b 168b c13c 8a99 1fbd ec9b b5bd
00000150: adb6 06be 9d51 12be c06a da3d 3ef3 653d
00000160: eeab 11be e4ac c43d 84c2 083d a2af 053d
00000170: 005c eaba 4099 7c3b 9e84 e3bd da54 ce3d
00000180: bd77 b43d 7305 b03d de99 e33c ad07 aebd
00000190: 6305 343e b5ad f03b 808d 2e3e 15f9 233c
000001a0: ff0d 583e 7877 ec3c d038 173e ef49 293d
000001b0: 897e aa3c 611c adbd 4a4e bd3d 3169 13be
000001c0: abbd b53d b555 20bc 14ae 423a 88f0 c93d
000001d0: 5930 f83d 1cf9 bc3c 82b6 ea3d b365 cdbd
000001e0: e0d9 32bd ffd9 f6bd ff38 19be cf19 24be
000001f0: 7a6d e83d 291d 973d 10c1 c6bc b447 24be
00000200: 8d0c 063e d8da d0bd 9433 60bd ecae c33d
00000210: a15d cf3d 1c24 0fbe c42a fabc a0d2 3dbd
00000220: 4fcd 03be e381 e23d e088 ffbd 00d5 f7bd
00000230: 240d d8bd 7ee3 19be d09d 04bd 7074 e43c
00000240: 0443 743d 201d f03b 76ce bc3d a02e b13b
00000250: 564f c93d ec45 debd eb77 1f3e f0a2 643c
00000260: e006 1f3c e8e6 623d 5124 093e 6412 a3bd
00000270: eacc e43d 3a8c 7dbd 7667 ec3d 5619 823d
00000280: 2d57 66bd 4940 2b3e 10c5 f83d 33be eb3d
00000290: ad8e f939 7be3 d63d 1558 3b3d fec9 3c3e
000002a0: 7e65 6d3e 9e3e 9abc 14ed 213d 37d9 e8bc
000002b0: fd9d 513e 0a37 413d 2c4d 793d 44fb e6bd
000002c0: 8cbf 93bc afd7 273e 7d95 133e 2346 f7bc
000002d0: ecd0 a53d 3e0d e23d ba41 59bd 8c09 e33d
000002e0: 389d bbbd 6b1a ba3c 2517 5fbc db22 b6bd
000002f0: 2f83 09bd 9576 15bd 7b10 8ebd 82f9 fb3d
00000300: 9f11 b13c a523 083e 16a1 8cbd 8984 2d3d
00000310: e540 0abe c3a3 a0bc c2e1 9b3c 3b6f f73d
00000320: f4f8 afbd 4c90 93bc 9ad6 15be 14aa d1bd
00000330: 8f8c 033e 6846 2e3d c312 dfbd 4f6a 20be
00000340: b3d6 083e eba8 24be a856 8a3c 5157 20be
00000350: 7549 b6bc 9f52 f2bd 4116 54bc 3b74 033e
00000360: 0a6f 053e a0af 46be 66f2 1c3e e7c7 91bd
00000370: c6ed 4a3c bac9 173e 86c9 c73d d7bd c9bd
00000380: cca4 783e 253b 173d a3fe ba3c 3113 fe3b
00000390: d648 133e bdf1 a03d 0fcf 513e ada9 ec3d
000003a0: 3b33 6c3e eb43 943d d95b c3bc 6d7f 953d
000003b0: 52c7 693e e8fd bebd 335e f83d 2c9e d03d
000003c0: 0a22 9a3c 1df4 12bd a7b1 bd3d 0a4d a9bc
000003d0: 5ac4 2a3d a037 963c 716f 0a3d 9490 803d
000003e0: 7acf 283d c57a 1e3e 00ae f83d 4787 c13b
000003f0: b013 91bd e113 3dbd fac3 b23b 5e47 c5bb
-0.0036703725 0.12869348 0.1689127 0.18335842 -0.076843135 0.0017119668 -0.06834297 0.10751712
-0.09670383 0.21412325 -0.057874378 0.17504892 -0.044099595 0.20454805 0.19057839 0.035601903
-0.008703893 -0.1006983 -0.06551969 -0.033658788 0.08382308 0.074233316 -0.00975159 0.045417953
0.03921006 0.11815982 -0.13128477 -0.09026714 -0.046991006 -0.13415354 -0.0415414 -0.034163825
-0.03719809 -0.014985395 -0.11868966 -0.17259549 -0.15095383 -0.077046625 -0.13400006 0.10930214
-0.14261664 0.0630297 0.07930943 -0.0015769451 0.13414137 -0.005260388 0.15669508 -0.1529283
0.067351885 0.10169426 0.1294764 -0.18201114 -0.17182523 0.15603508 0.14583538 0.1018117
-0.066670656 -0.04020418 0.0022351907 -0.078256935 -0.08186321 -0.024618655 -0.11492352 -0.06765007
0.113549605 0.04937087 0.16743158 0.094638005 -0.08967068 0.06585894 0.13129951 -0.08971667
-0.12765236 -0.07578376 -0.09835886 -0.14475206 0.04201238 0.13741134 -0.030148763 0.07285018
0.0036417157 0.023625892 -0.038964786 -0.0886763 -0.13155623 -0.14288945 0.10664892 0.056140177
-0.14225742 0.09603289 0.03338863 0.0326382 -0.0017880201 0.0038543493 -0.11109279 0.10074778
0.08811901 0.08594789 0.02778333 -0.08497558 0.1758018 0.0073449262 0.17046165 0.010008116
0.21099089 0.02886556 0.14767766 0.041330274 0.02081229 -0.084526785 0.09243448 -0.14395596
0.08874067 -0.009786059 0.00074264524 0.09860331 0.121185966 0.023068003 0.11460592 -0.10029163
-0.043664813 -0.12053298 -0.14963149 -0.1602547 0.11349006 0.07378609 -0.024261981 -0.16042978
0.13090725 -0.10197991 -0.05473669 0.09554848 0.1012528 -0.13978618 -0.03053797 -0.046343446
-0.12871288 0.1105993 -0.12477279 -0.121011734 -0.105493814 -0.15028188 -0.032377064 0.027887553
0.059634224 0.0073276907 0.09219067 0.0054071695 0.09829585 -0.1085318 0.15573089 0.013954863
0.009706229 0.05539599 0.1339276 -0.07962492 0.11171897 -0.06190131 0.11543171 0.06352489
-0.05623548 0.16723742 0.12146962 0.11510887 0.00047599283 0.10492607 0.0457383 0.18436429
0.23183247 -0.018828686 0.039532736 -0.028423889 0.20470424 0.04717163 0.060864612 -0.11278394
-0.018035673 0.1639087 0.14412494 -0.030184811 0.08096489 0.11037682 -0.053041197 0.11085805
-0.091608465 0.022717675 -0.013616358 -0.08893367 -0.033572372 -0.03649004 -0.06936737 0.12303449
0.021614848 0.13294847 -0.06866662 0.042362723 -0.13501318 -0.019609338 0.019028548 0.120817624
-0.08592406 -0.018013142 -0.14632645 -0.10237518 0.12846588 0.042547613 -0.108922504 -0.15665554
0.13363151 -0.16080062 0.016887024 -0.15658309 -0.022251824 -0.11832165 -0.012944759 0.12837307
0.1303064 -0.19402933 0.15326843 -0.071182065 0.012385791 0.14823046 0.097552344 -0.09850662
0.24281615 0.03692164 0.022826498 0.0077537526 0.14383253 0.07858608 0.20489143 0.115558006
0.23066418 0.07239517 -0.023847507 0.07299695 0.22829941 -0.093257725 0.12127342 0.10186419
0.01881506 -0.035877336 0.092624 -0.020666618 0.04169116 0.018337071 0.033797685 0.06277576
0.04121349 0.1547652 0.12142563 0.005906019 -0.07083833 -0.046161536 0.005455491 -0.0060204705

liner.1.bias f4 [36]
00000000: 9214 af3d feb9 9e3d a491 9ebd f8a5 993c
00000010: 1fad 263e 5c54 673e 471c 6bbc e49c cabb
00000020: 5391 8cbd c88b e23d 9510 9dbc 5674 bfbd
00000030: 9369 203e fd13 5c3e 3f45 ef3d 84b5 1e3e
00000040: 55e0 00be a6c3 29be 4114 a63d 90b0 7c3d
00000050: 56a6 1e3e 77f5 0c3d 445d 823d ad1e 4e3e
00000060: 267c 25be 3274 17bd 0c5f 303e e477 903d
00000070: 4a7c 27be 123b 0cbe 198c f93d 13dd d03d
00000080: 85b3 f63d a570 193e 11be 253e 36dc 7fbb
0.08548845 0.07750319 -0.077426225 0.018755898 0.16276978 0.22590774 -0.014350004 -0.0061832536
-0.06863656 0.110618174 -0.019172946 -0.09348361 0.15665273 0.21492 0.116831295 0.1549893
-0.12585576 -0.1657854 0.08109332 0.06169182 0.1549314 0.03441378 0.06365445 0.2012889
-0.1616064 -0.036976047 0.17223758 0.07054117 -0.16356006 -0.13694409 0.12184925 0.101984166
0.120459594 0.14984377 0.16185786 -0.0039041168

liner.3.weight f4 [20, 36]
00000000: c1fd d1bc dda6 24bd 800b 343e 6c1d 4b3e
00000010: 88b9 02be e4e4 463e c4c1 493d a40d 473e
00000020: 154f c33d b867 d03d 0562 1d3e aac4 523e
00000030: cd4d 28bb ff01 543e d2f2 033c 9902 433e
00000040: e542 c1bd c7bd 9bbd 8254 d0bd 51e0 15ba
00000050: 128d 40bd 3832 c5bd 68bd de3c 5390 583c
00000060: 00b5 64bc 72e0 fe3d 00ed 0d3e c191 b53d
00000070: 9e01 193b 749e 29bd 3eea 42bc ebbb cabd
00000080: 76d6 5c3e ac09 193d 7642 d8bd 3fd9 8e3c
00000090: 1b4a 07bb 1888 393e 3044 143e 7450 283e
000000a0: 55b2 b93d 2558 d13d d369 c5bd 4717 38bc
000000b0: 0f20 22bd 37e2 80bd 1a77 263e bac0 a93c
000000c0: e993 0e3e 408d 503d 343e abbc e222 433e
000000d0: 0e20 97bd 5132 eabd bae3 af3d 5152 9bbc
000000e0: 3f49 63bd c045 a3bd 5821 e13c b14f 8e3d
000000f0: 7ad7 b33d 6b35 0d3e 975f 903d f57d 333e
00000100: 8fb3 dabd 265b 5cbd e8dc 693d 7ad6 edbd
00000110: ebed 813a 5ce3 503e e0df 993b ac5d 09be
00000120: e0ba 4a3d 97ad 8fbd 8339 073e 7bd9 343d
00000130: e568 c93d 0e05 243e 8b2f ae3d e855 e23d
00000140: 55cc 98bd 384f 983d fa0e 883c 83af e83d
00000150: 7a3e 8f3d 7c1b 813c 7a0a bf3d 3890 f63d
00000160: a35f 3cbd a192 22bb c4fd 46bd 90ba 09be
00000170: 0f71 12be 16e0 9d3c 66dd bf3d 033b dfbc
00000180: 6c5c 293d a11e 4c3e 2502 103d 74e1 013c
00000190: e130 09bd 60cc 333d 4f86 ca3c b1ba cd3d
000001a0: cc27 433e 4818 223e dc81 9ebd 2c17 0a3c
000001b0: 6972 f3bc 63c0 71bd 898f e83d 6fa6 d13d
000001c0: 1e2e f3bd 1fdf 233e 5402 743d 6a14 a6bd
000001d0: 2d42 e5bc 5fe0 a63c 9963 86bd b4da 963d
000001e0: 88ab 0c3c 4688 553d d820 cfbc 0a2c 7e3d
000001f0: 32fd bebd 6fa3 a23d 7ff8 bd3d 5273 433d
00000200: ce2c 143e 33d2 303e 0a4a bb3d 478c df3b
00000210: 2cb1 27bd a89d 6e3e 41c1 cf3d 367d f2bd
00000220: a81c 1a3e 784c ecbc b124 74bd a6f1 b33c
00000230: d0ec 453e 4562 093e f9dd 483d df3b 033e
00000240: 4449 e33d 6c34 d1bd 6ac1 14bd 63eb e53d
00000250: 29cb c83d f675 e33d 7660 803c 606c 8d3d
00000260: b584 eb3d 7443 033d caea 443e 64bd 513e
00000270: e836 2d3e 491e 1b3e fd2c c63d ef5c 0a3d
00000280: d763 773d 4a2c d93d a015 863c 459b 633d
00000290: 0b3f 96bd 3941 36bd 63c1 e8bd 7db8 9bbd
000002a0: e62d adbd 2387 033d cfa3 263e 9b5f 6d3e
000002b0: 1999 07be c0d4 98bc 55c3 0c3e 9bd6 07be
000002c0: 4981 203e 7dbf ab3d ce18 f63b 7658 133e
000002d0: 4cb6 233e ee97 cabd 2177 273e c125 983d
000002e0: 76c7 d23d aeb0 023d 19b9 1ebd 5ce2 cf3c
000002f0: 4f1b 803d 9772 6a3d e798 b73d 583e 6b3e
00000300: f70f a53d 8030 5f3e 2224 3b3e 7f3b 5a3e
00000310: 9a9e 12be 76fd 083e 1cea 673d 2725 7f3d
00000320: c22a e83c a704 ba3d 6c94 00bd 367f 133e
00000330: 0628 e23d 9032 e43d e7b8 913d 4101 1d3d
00000340: 2af2 adbd 8867 8abd 9198 453d 0c3d 013d
00000350: 0c1c 853d 13ad b93d 3540 11be 951e a43d
00000360: c0e7 1d3d c606 5bba 92bd 7ebd 4daf e9bd
00000370: 7aa5 33bd a320 fdbd 964b f33d bba3 453c
00000380: 45bb 3b3c 8105 1b3d 61c5 003e bb15 f4bd
00000390: 164f ca3d bbd7 7a3d 580b debd 9422 8bbd
000003a0: e008 2ebd 2fe7 30be 3ed4 a0bc f3a1 043e
000003b0: 56fc 1cbe 20fd b03d 1619 cf3d ac6b fd3d
000003c0: 0e29 b2bd 671e 3cbc a80a 0c3d 41c9 153e
000003d0: f840 2abe 3a7a d13d 5078 1cbe 78b7 05be
000003e0: 7912 353c 23c7 1dbe 8c07 4abd 375b 06be
000003f0: 03f2 083e 6bc8 213c 5c5e c73d 076a 9f3d
-0.025633695 -0.040198196 0.17582512 0.19835442 -0.12766087 0.19423252 0.049257055 0.19438797
0.09536568 0.10176033 0.15369423 0.20582834 -0.0025681139 0.20703886 0.008053498 0.1904396
-0.09436587 -0.076045565 -0.101723686 -0.00057173247 -0.047009535 -0.09628719 0.027189925 0.013218003
-0.013959169 0.12445153 0.1385994 0.08865691 0.0023346911 -0.04141088 -0.011896668 -0.09899124
0.21566185 0.03736274 -0.105595514 0.017437575 -0.0020643536 0.18118322 0.14479136 0.1643694
0.09067217 0.1022189 -0.09639325 -0.0112360185 -0.039581355 -0.06293147 0.16256371 0.020721782
0.13923611 0.050915956 -0.020903684 0.19056275 -0.07379161 -0.11435378 0.08588357 -0.01896015
-0.055489775 -0.07972288 0.02748172 0.06948794 0.08781333 0.13789909 0.07049482 0.17528518
-0.10678779 -0.053797863 0.05709544 -0.11613174 0.0009912824 0.2039923 0.0046958774 -0.13414639
0.049494624 -0.070155315 0.13205533 0.044152718 0.0983446 0.16017553 0.08505162 0.110515416
-0.07460848 0.07436985 0.016608704 0.11361601 0.06994338 0.015760176 0.0932817 0.12039226
-0.045989644 -0.0024806636 -0.048581854 -0.13450074 -0.14300941 0.019271892 0.093684 -0.027249819
0.041347906 0.19933559 0.035158295 0.007927287 -0.03349388 0.04389608 0.024722246 0.10045374
0.1905815 0.15829575 -0.077396125 0.008428376 -0.029717641 -0.059021365 0.11355502 0.10236823
-0.118740305 0.16003083 0.059572533 -0.081093624 -0.027985657 0.02037066 -0.065619655 0.07365933
0.008585818 0.052131914 -0.025284216 0.062053718 -0.09325637 0.07941329 0.092759125 0.0477174
0.14470217 0.17267685 0.09144981 0.0068221423 -0.04094045 0.23302329 0.10144282 -0.11840288
0.15049994 -0.028845057 -0.059605304 0.021965813 0.19328618 0.13416393 0.049039815 0.12815808
0.11097959 -0.10215077 -0.036317267 0.11226537 0.09804375 0.11106484 0.015670996 0.069054365
0.11499921 0.03204675 0.1923019 0.20482403 0.16915476 0.15148272 0.096765496 0.033780035
0.06039795 0.106041506 0.016367733 0.055568 -0.07336243 -0.044495795 -0.113650106 -0.07603548
-0.0845602 0.0321113 0.16273426 0.23181002 -0.13241996 -0.018656135 0.13746388 -0.13265459
0.15674318 0.08386133 0.007510281 0.14389214 0.1598751 -0.098922595 0.16354038 0.07429076
0.102919504 0.031906776 -0.03875074 0.025376491 0.06255209 0.057238188 0.08964711 0.22973001
0.08059686 0.21795845 0.18275502 0.21311758 -0.14318314 0.13377938 0.05661975 0.06229129
0.028340701 0.090829186 -0.031391546 0.14403996 0.1104279 0.111424565 0.071153454 0.038331274
-0.08493455 -0.06758028 0.0482412 0.03155236 0.0649949 0.090662144 -0.1418465 0.080136456
0.038551092 -0.00083551963 -0.062192507 -0.11410389 -0.043858983 -0.123597406 0.11879651 0.012062962
0.011458223 0.037847046 0.12575294 -0.11918207 0.09878366 0.061240893 -0.108420074 -0.06793705
-0.042488933 -0.1727569 -0.019632455 0.12952404 -0.15330634 0.0864203 0.10112207 0.123740524
-0.08699237 -0.011481858 0.03418985 0.14627554 -0.16626346 0.10228391 -0.1528027 -0.13058269
0.0110517675 -0.15407996 -0.049323604 -0.13120733 0.1337357 0.0098744435 0.097347945 0.07783895

liner.3.bias f4 [20]
00000000: 2970 e9bc 6932 4f3e 8a9e 5d3e 1c5c 0fbd
00000010: 4eb0 f9bc 559a 8d3d f530 a23c 6de5 fd3c
00000020: 491d b33d 70b7 11bd 4bcd 393d 4f07 15be
00000030: 1254 253e 6ff2 f83c 1f5e 4b3e f6f1 91bd
00000040: 025d ca3d 4c04 90bd 965a 163e 3e0f 083e
-0.028495865 0.20234074 0.21642509 -0.03499995 -0.030479576 0.06914202 0.019798735 0.030993188
0.0874582 -0.03557533 0.0453618 -0.1455357 0.16145352 0.030389039 0.19860123 -0.071262285
0.09881021 -0.070320696 0.14682993 0.13287064

liner.5.weight f4 [12, 20]
00000000: 866a f1bd 3670 ac3d c893 9c3a 7a4f 4f3e
00000010: 7ce7 e33d cff9 46be b41d 203d 1f63 0bbe
00000020: da4b 543c 27e1 393e 772d df3d c24f 053e
00000030: 46a6 af3c e4b7 9fbd 64e1 b33b ec1d 2d3e
00000040: 5609 71be b4e2 acbd 5123 11be 1971 30be
00000050: 75a9 783e 9874 d13d e337 1d3e c2b2 013e
00000060: c7b0 553e 18bb 333e cb85 91bd b6f6 5bbd
00000070: b300 943d 2e40 be3d e136 0f3e 7a63 b6bb
00000080: 2b82 923e bc1c 14be 933d 05be 4d5d 43be
00000090: 12bc 143d e687 b03d f25c 833e b799 06be
000000a0: 01d4 043e faf7 c8bc 3995 3cbd be70 73be
000000b0: 9c88 b6bd 0144 063e 89c1 85bb c775 b53c
000000c0: 437b 29be d11e 74be 59c5 4fbe 633d 173e
000000d0: 1982 363e 05bf 9bbd da1f 4dbe bc55 57be
000000e0: c4ae 483e a16e 41be 5bf5 323e 353e f63d
000000f0: df25 4ebe 9017 b13d c7fd c0bc 4a87 a43d
00000100: 3e00 9d3d 8f78 4bbe b54f 2d3e 7490 c33d
00000110: ce2a d13d 2a91 993c a700 3bbe 82e4 66bd
00000120: cdb2 123e ec96 233e 38ac 29be 907c 59be
00000130: 4644 bbbd 1b0d d83d fef5 383e 0f94 53be
00000140: 8317 12be c234 b6bd d5b1 eb3d de25 e93c
00000150: 8b9a 46be 49c6 1cbe a8cc 25bd 42ed 21be
00000160: 9952 ab3d 9d41 933d 2138 1b3e fd8b fb3d
00000170: aa98 f0bb 06fa 183e bee2 8c3c 880a d3bc
00000180: 5895 74bd 11c9 03be e433 023d 5af3 54be
00000190: a5ae 473e 1ee2 e63d 1a78 c1bc 1fad b13c
000001a0: 72f8 11be 5e94 20be 23aa a2bd 2e41 e23d
000001b0: 479a 5a3d ffb6 163e 8f60 183e 8cac 60be
000001c0: 5cc5 babd fb6d 16be 9f7a 35be 8c8c c53d
000001d0: 5984 fdbd 2853 ef3d 40f1 d83d bdaa 98bc
000001e0: 6648 bebc a9a2 b7bd 7b70 523d 6b2e 9abd
000001f0: ac13 07bd f44c 6f3d 2af2 ea3d ca98 db3d
00000200: 97f4 52be a8e0 fa3d 1858 3ebe ac69 f33d
00000210: b71d 77be b79b b5bc f2ae ca3d 7073 0e3e
00000220: deac 4bbc e99e 65be d76c 86bd 1456 013e
00000230: 7815 213d 20c4 563d 0032 ec3d 3c40 1abe
00000240: 4916 dbbd c02b 66bd c69e 97bd a8f6 373d
00000250: dcfe 533e ef0a 3abe c027 7abc 54ec 68bd
00000260: 569c 173e f4f6 3abd 98df 42be 784b 08bd
00000270: fccd f43d 7818 343d 07a9 56be 501b 423d
00000280: 98e1 4dbe 45e4 6ebe 7bef be3d fab7 c6bd
00000290: 107b e9bd e398 583d 007b 7d3b b8d5 c6bd
000002a0: 2981 faba f7bf 34be 68ef 49be 9827 b7bc
000002b0: 2016 d4bd dc61 e3bc 094d 1a3e 884d 2b3e
000002c0: 9e70 a63d 252a df3d 681c 033e 2499 ac3d
000002d0: 2760 313e 73fe b23d c8e9 4d3e 5b57 c4bd
000002e0: 17b9 33be 8a3f b43d e754 3bbe c8a7 2e3e
000002f0: 3139 92bd ccc6 e73d 37be 593e 3711 c53d
00000300: f3e8 f63d a980 6a3d 4a10 853e b66b 0fbe
00000310: 5bdb 463e 3258 4c3d d0c0 263e ee81 9ebd
00000320: 811a 293e f44e 2a3e 0edb 863d 3a1e 433e
00000330: 471d 1a3e 1e61 5d3d 697d 313e df72 3f3e
00000340: 025d 4dbd 798e 8c3e 27fc b3bd 8a5f cfbd
00000350: c450 bb3b 2615 0cbd cc35 843e 9062 733c
00000360: 2cf7 023d 655f 563c 1c4c 5c3e 6658 86bd
00000370: f0b0 0a3d f08a 7f3c 0010 62bc 505d 183d
00000380: 007a 97ba e2c3 36be be4a 06be ec4a 21be
00000390: 3e92 32be 04ad 1abe 9487 febd c7b6 52be
000003a0: b291 3e3e c8c8 2ebe 19eb 0bbe 5c52 ce3d
000003b0: f80b 323e 70e5 4cbe ce5a 59be dcad 363e
-0.11787896 0.0841984 0.0011945898 0.20245162 0.111281365 -0.19431232 0.039090827 -0.1361203
0.012957538 0.18152295 0.108973436 0.13018706 0.02144159 -0.07798746 0.005489515 0.16905946
-0.23538718 -0.08441678 -0.14173628 -0.17230643 0.24283393 0.102273166 0.1535335 0.12665847
0.20868216 0.1755184 -0.07105597 -0.05370208 0.07226696 0.09289585 0.13985778 -0.0055660577
0.28614935 -0.14464086 -0.1301177 -0.1907856 0.03631217 0.086196706 0.2565685 -0.13144575
0.12971498 -0.024532307 -0.046040747 -0.23773476 -0.08912775 0.13111879 -0.004081909 0.022150887
-0.16550927 -0.2383988 -0.20290126 0.14769511 0.17823066 -0.076047935 -0.20031682 -0.21028799
0.19597918 -0.18889858 0.17476408 0.12023584 -0.20131634 0.08647072 -0.02355851 0.08033617
0.07666062 -0.19870208 0.16924937 0.095490366 0.102132425 0.018745977 -0.18261968 -0.056370266
0.1432602 0.15975541 -0.16569602 -0.21238923 -0.091438815 0.10549375 0.18062589 -0.20661949
-0.14266782 -0.088967815 0.11508528 0.02846044 -0.19394891 -0.15310015 -0.04047838 -0.15813163
0.08365364 0.07190249 0.1515813 0.1228256 -0.0073424177 0.14939126 0.017197963 -0.025761858
-0.059712738 -0.1286967 0.031787768 -0.20795956 0.19500215 0.11273597 -0.02361684 0.021688996
-0.1425493 -0.15681598 -0.07942607 0.11047588 0.053369787 0.14718245 0.14880584 -0.21940821
-0.091196746 -0.14690392 -0.17722557 0.09645948 -0.12378759 0.11685783 0.1059289 -0.018636102
-0.023227882 -0.08966572 0.0513768 -0.07528385 -0.032977745 0.058422998 0.114719704 0.107225016
-0.20601116 0.12249881 -0.18588293 0.1188539 -0.24132429 -0.022168977 0.098966494 0.13911223
-0.0124313515 -0.224239 -0.06563728 0.12630492 0.039327115 0.052433133 0.11532974 -0.15063566
-0.1069761 -0.056194067 -0.074033305 0.044912964 0.2070269 -0.18168233 -0.015268266 -0.056866005
0.14805731 -0.04564567 -0.19030607 -0.033275098 0.11953351 0.043968648 -0.20962916 0.04738933
-0.20105588 -0.23329265 0.09323021 -0.097030595 -0.114004254 0.05288018 0.003867805 -0.09708732
-0.0019111979 -0.17651354 -0.19720232 -0.022357747 -0.103557825 -0.027756624 0.15068449 0.16728795
0.08126949 0.1089671 0.12803805 0.08427647 0.17321835 0.087399386 0.20108712 -0.09586974
-0.17551075 0.088011816 -0.18294106 0.17056191 -0.07139815 0.11317214 0.21263967 0.09622424
0.1205615 0.057251606 0.2598899 -0.14005932 0.19419615 0.049888797 0.1628449 -0.07739626
0.16514017 0.1663168 0.0658475 0.190545 0.15050231 0.054047696 0.17332996 0.18696164
-0.050137527 0.27452448 -0.087883286 -0.101256445 0.005716415 -0.034199856 0.25822294 0.014855042
0.031974003 0.013084267 0.21513408 -0.065598294 0.033860147 0.01559709 -0.01379776 0.037198365
-0.0011556745 -0.17848161 -0.1311445 -0.15751237 -0.174386 -0.15105063 -0.12428203 -0.20577537
0.18610266 -0.1706878 -0.13663901 0.100743026 0.17387378 -0.20009398 -0.21226045 0.1783976

liner.5.bias f4 [12]
00000000: cd4e 56be e16d 823e 8e83 9a3b a802 b03d
00000010: f7ad 52bd b150 7e3d 8dfa 3ebe c6b2 21be
00000020: e031 123e de27 09be 8ca6 db3d e04a 573e
-0.20928498 0.25474456 0.0047153896 0.08594257 -0.051435437 0.062088672 -0.18650265 -0.15790853
0.14276838 -0.13394114 0.10725126 0.21024656

liner.7.weight f4 [12, 12]
00000000: 7280 a0bd 7106 16be 42f2 7abe 2c1b dd3d
00000010: e400 c43d 0408 7abd a813 1f3d 98b2 533d
00000020: a0ac 713e e8bc 84be b4df 52be 298c 6ebe
00000030: ddd1 2cbe 1f37 ddbc f47e 2d3e cb75 283e
00000040: c33f 73be 43b3 d53d e65b 4cbd f665 113e
00000050: db74 8bbe 9560 ab3d a340 dcbd 74d1 793e
00000060: 0557 143e e077 1bbe ceaf 853e ef7a 153d
00000070: 5d86 48be 33a4 063e bfd5 e6bc e84c 89be
00000080: 8311 2c3e bf45 75be 9988 763e dc16 3f3e
00000090: d09b 7b3e 212f 8abe b0aa 4e3d 8e01 90be
000000a0: 7612 8b3e 4df6 60be c689 1fbe d6a4 59be
000000b0: 2aee a5bd 6cb1 8ebd 084c 52bd 4c09 7dbd
000000c0: cb4b ef3c bfc9 afbd f161 d9bd 1026 663e
000000d0: ff94 bfbd 8c84 393e 1b5d 3ebe 60a8 b53d
000000e0: 68d1 983b 2349 ca3d 5beb a3bd 7623 dbbd
000000f0: c716 57be f2b3 ad3e 3254 1c3c 0e3e d03d
00000100: 5357 5c3e ac64 2abe 399c c0bd 7010 c13d
00000110: e6bf 8abe 0f74 b73d 5e15 413e ea30 8f3e
00000120: 7851 9bbd 78e3 b93e 8a50 28be c5f5 66be
00000130: 6fad 48be deed a7bc cc1b 633d d029 3dbe
00000140: a124 99bc 753f ed3d 7664 cf3d 9c32 233e
00000150: 6ec6 be3d 57c0 9d3e 6afb 17be 4686 2c3e
00000160: fdbe 503e c7ba 973d f709 2fbe 0c23 b43d
00000170: 5452 26be b8a3 2a3d 0974 903e 502e e0bd
00000180: c1d5 88bd 6009 67be d753 353e af4a 323e
00000190: ee1d 7dbe 5307 59be 85bc 8ebd d0b2 5b3e
000001a0: 31f9 983e 0b5c 253e aae0 8b3d 401b 873e
000001b0: ab16 86be 70e9 b13c 5805 11be c873 363d
000001c0: 44bb 563e d0a5 ca3c 7c05 c93d 026c 7abe
000001d0: 0870 183d 7a95 243e 59c6 91be 08e7 66be
000001e0: 5472 29bd 4dba 793e 3606 803d 03c8 0ebe
000001f0: 910f f0bd d5e7 c83d f865 2a3d 1025 a03d
00000200: 8784 183e 7814 b73d a0b6 6b3e 9859 0abd
00000210: 765e 25be c92f 76bd 3b9a 4bbe 0829 823d
00000220: 1bc6 743e 2cf9 8b3e 5a81 87bb 966a f5bd
00000230: db96 0f3e 4969 993e 9e91 4d3e c026 c23b
-0.07836999 -0.14650895 -0.24506477 0.10796198 0.095704824 -0.0610428 0.038837105 0.051683992
0.23601007 -0.25925374 -0.20593148 -0.23295654 -0.16876931 -0.027003823 0.1694296 0.16451184
-0.23754792 0.10434582 -0.04989233 0.14199051 -0.2723759 0.08368031 -0.10754516 0.24396306
0.1448632 -0.15182447 0.2611069 0.03649419 -0.19582506 0.13148575 -0.028178094 -0.26816487
0.16803555 -0.23952387 0.24075545 0.18661064 0.24571157 -0.26989082 0.05045575 -0.28126186
0.27162522 -0.21968956 -0.155799 -0.21254286 -0.08102067 -0.06967434 -0.05134204 -0.061776444
0.029210946 -0.08583402 -0.10614384 0.22475457 -0.093545906 0.18116969 -0.18590204 0.088700056
0.004663635 0.09877231 -0.08003875 -0.10700123 -0.21004783 0.3392635 0.009541558 0.10168086
0.21517687 -0.16639966 -0.09404797 0.09426963 -0.27099532 0.08957683 0.18855807 0.27967006
-0.07583898 0.36306357 -0.16436973 -0.22554691 -0.1959741 -0.020499166 0.05544643 -0.18472981
-0.018694224 0.11584369 0.10126583 0.15937275 0.09315191 0.30810806 -0.14842 0.16848096
0.20385356 0.07408672 -0.17093645 0.08795747 -0.16242343 0.04166004 0.28213528 -0.109463334
-0.06681395 -0.2256217 0.17707764 0.17411302 -0.24718449 -0.211942 -0.06969551 0.2145493
0.29877618 0.16148393 0.06829961 0.26387978 -0.2618917 0.021717757 -0.14162195 0.04454401
0.20969874 0.024737269 0.09815499 -0.24455264 0.037216216 0.16072646 -0.2847164 -0.22549069
-0.041368797 0.24387474 0.06251185 -0.13943486 -0.11721719 0.098098435 0.04160115 0.07819569
0.14894305 0.08939451 0.23018885 -0.03377685 -0.16149315 -0.060104165 -0.19883053 0.06355482
0.23903696 0.2733854 -0.004135293 -0.1198322 0.1402239 0.2996314 0.2007508 0.0059250295

liner.7.bias f4 [12]
00000000: c254 2f3e 5a50 45be 737c 9f3d b499 363e
00000010: 0aac 5cbe 63dd 783d 73b6 ed3d cca1 01be
00000020: 04cd 7cbe 304d 853e d6f2 02bd 3303 853e
0.17122176 -0.19268933 0.07787409 0.1783207 -0.21550003 0.060758006 0.11607065 -0.12659377
-0.24687582 0.26035452 -0.031969868 0.25979003

liner.9.weight f4 [2, 12]
00000000: 0094 573d 0592 ef3c 3aff 0cbe c27a 39be
00000010: 0bda 33bd 724b 473d 84a5 0a3d 0fde 07bb
00000020: e4f6 9d3e 8adc 8b3e ce1e 663e 2132 903e
00000030: 8eff 1ebe c1b7 29be be39 83be dec9 003e
00000040: bdcf 85be a14d 793e 5c55 633e 43e6 9f3e
00000050: f79e c7bc 8d0c 10be 3f0b 833d deb8 a63e
0.05263138 0.029244432 -0.13769236 -0.18113235 -0.043909114 0.048655935 0.033849254 -0.0020731722
0.30852425 0.27316695 0.22472689 0.28163245 -0.15527174 -0.16574003 -0.2562999 0.12577006
-0.26135054 0.2434602 0.22200531 0.31230363 -0.024367793 -0.14067288 0.063986294 0.32562917

liner.9.bias f4 [2]
00000000: 3ee5 0cbd 2801 d53d
-0.03439831 0.10400611
