model/gain.pth (torch, 2911 bytes, 6 tensors)

liner.1.weight f4 [10, 10]
000000 af 0e 39 3e 4b bf 2b be 62 54 b2 bd 9d 38 6a bd
       0.18072008 -0.16772191 -0.08707501 -0.057182897
000010 77 13 3f 3e e1 01 cf be 74 10 c0 bd 87 2e 35 bd
       0.18659769 -0.4043112 -0.09378138 -0.044233825
000020 45 11 31 be 3d 8a 9a be 5c 09 c0 be 9e c0 bd bc
       -0.17291744 -0.30183592 -0.3750714 -0.023163136
000030 46 02 32 be 7a 44 a7 bd 58 c0 c9 be 8a 97 2b be
       -0.1738368 -0.08167358 -0.3940456 -0.16757026
000040 90 df 57 be a5 8c 5d bd 24 2e 90 be a7 d7 8f 3d
       -0.21081376 -0.054089207 -0.28160203 0.07023554
000050 cd fb bd 3e 6c e7 4e be 2a 69 5e 3b 24 7b e9 bd
       0.3710617 -0.20205468 0.0033937194 -0.1140044
000060 94 73 db 3d 31 2b 00 3e 50 2e 90 3e 01 e7 00 be
       0.10715404 0.12516476 0.28160334 -0.12588121
000070 c6 1d 01 3e 23 0c b1 bd 46 82 25 bd 12 c7 8c 3e
       0.12609014 -0.08644893 -0.04040744 0.2749563
000080 d9 f8 36 be a0 99 3d be 0c 0b 45 be a9 de 6d 3e
       -0.17868365 -0.18515635 -0.19242495 0.2322947
000090 50 7d 94 3d 04 de 61 be a2 6b 00 3c 58 b3 bc 3e
       0.07250464 -0.22057348 0.007838162 0.36855578
0000a0 e8 f8 82 3e 84 0a e6 bd 0d da 7f be 7c 86 5b 3e
       0.25580525 -0.112324744 -0.24985524 0.2143802
0000b0 38 f4 05 3e 51 d4 75 be 14 27 41 be 45 b4 4f be
       0.13081443 -0.24006774 -0.18862563 -0.20283611
0000c0 ce a3 a3 3e 08 61 43 3e 90 c1 67 be 74 13 10 3e
       0.3196091 0.19079983 -0.22632432 0.14069921
0000d0 42 b8 09 3e 66 3a 60 3e d7 95 94 3e 96 d1 c3 3e
       0.13449195 0.21897277 0.2902057 0.3824584
0000e0 ff 72 9a bd c0 39 70 3e a0 3f a8 3e 82 73 c9 3e
       -0.07541465 0.2345953 0.32861042 0.39345938
0000f0 ed f2 29 be dd d7 d7 be 0b 36 3c 3e 73 d6 98 bd
       -0.16596575 -0.42156878 0.18379991 -0.07462778
000100 77 76 49 3e b1 d0 69 bd 3f a7 98 3d a6 4d d5 be
       0.19674097 -0.05708379 0.07453775 -0.41660804
000110 69 fa 66 be a0 21 1c 3e 66 f4 39 be 08 fe 6a 3e
       -0.22556461 0.15247202 -0.18159637 0.22948468
000120 02 2e d7 bd 9a 6d bf 3e ca b0 2f be 44 93 7b 3e
       -0.10506822 0.37388307 -0.17157283 0.24567896
000130 84 46 8f 3e e3 94 d2 bd 97 8a e7 3c b9 4a a2 3d
       0.27983487 -0.10282304 0.028264327 0.079244085
000140 93 41 a5 bd 06 5f 33 3d 97 1f 6a 3e 7e 56 1b 3e
       -0.08069148 0.043791793 0.22863613 0.15169713
000150 11 b9 13 bd 31 3e a1 be d4 7f 8b 3d b6 1d 75 be
       -0.036065165 -0.3149276 0.06811491 -0.23937115
000160 ba 03 72 bd 72 10 2c 3e b4 83 5b be 9d 0d b6 be
       -0.059085585 0.16803148 -0.2143696 -0.3555726
000170 1b 90 a0 be 23 16 aa 3d 4d 28 75 3e 71 6d b3 bd
       -0.31359944 0.083050035 0.23941155 -0.08761109
000180 8e 1e 57 3e 5a 54 cf 3d d2 cd 68 bd 38 63 26 3e
       0.2100775 0.10123511 -0.05683691 0.16248786

liner.1.bias f4 [10]
000000 c4 65 9c be 3f 7a 19 bc 64 e6 a4 bd aa cf f0 3c
       -0.3054639 -0.009367525 -0.08051756 0.029395897
000010 52 cd 85 bc f5 fa b2 3e cd b0 97 be 1f 75 3f be
       -0.016333256 0.3495709 -0.29627076 -0.18697022
000020 e5 26 82 3d 62 14 81 be
       0.06355075 -0.25210863

liner.2.weight f4 [4, 10]
000000 86 db bc be ff 10 90 be ae 10 66 3d 72 72 fb 3d
       -0.36886233 -0.28137967 0.05616825 0.12277688
000010 7e 29 11 3e f8 1a 95 3e a8 65 2c be b8 9e 95 3d
       0.14175984 0.29122138 -0.16835654 0.07305664
000020 91 3f 71 3e d2 ef a6 bd 32 58 8d 3e 1d c4 8a bd
       0.23559405 -0.08151211 0.2760635 -0.06775687
000030 88 bb 21 be ab 22 7b bd dd de 51 be 18 26 a5 be
       -0.15794194 -0.06131236 -0.20495172 -0.32255626
000040 c0 46 74 bd 5b 5e 56 bd 8f d4 ff 3d 30 b6 34 3d
       -0.059637785 -0.052336078 0.12491714 0.04411906
000050 68 9e 02 3e 60 32 3a be 42 c6 e5 3d 28 6b b3 3d
       0.1275574 -0.18183279 0.11219455 0.08760673
000060 45 8b 73 3e 02 e1 05 be d6 12 d6 3d a3 54 a5 3e
       0.23783596 -0.13074115 0.104528114 0.32291135
000070 9e 19 9c be 46 60 67 bd 1d 03 85 3e 10 fb 7b 3e
       -0.30488294 -0.056488298 0.25978938 0.24607491
000080 e2 21 8c be c1 03 fe 3c 01 da c4 3d 6e 6a 5c bd
       -0.273696 0.03100765 0.096118934 -0.053812437
000090 56 95 97 3e 2e ce a0 3e 67 34 d7 bd 25 59 2d be
       0.29606122 0.31407303 -0.10508042 -0.16928537

liner.2.bias f4 [4]
000000 fc 85 23 3e 58 5d 6c 3e 2e 4b ea 3d f4 2c 51 be
       0.1596908 0.23082483 0.11440121 -0.20427305

liner.3.weight f4 [2, 4]
000000 15 e3 d0 3e da 3f fd be b5 e9 a9 3e 3d da 33 3e
       0.4079825 -0.49462777 0.33186117 0.1756372
000010 12 50 cc 3e c7 51 80 be 54 1a 5a 3e 6c ec f2 bd
       0.3990484 -0.2506239 0.21299106 -0.118615

liner.3.bias f4 [2]
000000 80 89 f6 3d 0b 76 fd 3e
       0.12037945 0.49504122
